ml_models/nlp_model/fasttext_torch_model.pth (torch, 238378 bytes, 12 tensors)

fc1.weight f4 [64, 300]
0	0x3bce4dfb	0.006295917
1	0xbd46c9eb	-0.048532408
2	0xbcb3e6ed	-0.0219607
3	0x3d3fe53b	0.04684947
4	0xbc62e925	-0.013849531
5	0x3d11de42	0.035612352
6	0x3d418d62	0.047253974
7	0xbc83d944	-0.016094811
8	0xbd4dcd75	-0.050244767
9	0xbcce1eb6	-0.025161128
10	0xbd25fbc1	-0.040523294
11	0xbce39686	-0.027781736
12	0xbd67b730	-0.056571186
13	0xbbe5836f	-0.0070041935
14	0x3c7d5a67	0.015463448
15	0xbd5bfea0	-0.053709626
16	0xbd3845de	-0.044988506
17	0xbd632ebe	-0.0554645
18	0x3d45a31e	0.048251264
19	0xbd19883b	-0.037483435
20	0x3d08f403	0.033435833
21	0xbca1294e	-0.019673016
22	0xbd56830a	-0.052371062
23	0xbbe369dd	-0.00694011
24	0xbcc3af5e	-0.023887333
25	0xbd51a11a	-0.05117903
26	0x3cb0c654	0.021578945
27	0xbd0cf0ce	-0.034409337
28	0x3d2bd0aa	0.041947044
29	0xbd3fed54	-0.046857193
30	0xbd1787bd	-0.036994684
31	0x3b7fe5db	0.0039046917
32	0x3c2a3d49	0.010390588
33	0x3bbcacc7	0.0057579014
34	0x3ca1c267	0.019746019
35	0xbd53a287	-0.05166867
36	0xbd2505e9	-0.04028884
37	0x3c381d25	0.011237417
38	0xbb87f519	-0.004149091
39	0xbd239cbf	-0.039944407
40	0x3cca82d2	0.024720583
41	0x3d2eddf7	0.04269215
42	0xbcf53611	-0.029933007
43	0x3c7c72ea	0.015408257
44	0xbd489a23	-0.04897512
45	0xbd0f3f55	-0.034972508
46	0xbbaed122	-0.005334989
47	0xbcf707ac	-0.030155025
48	0x3bd64329	0.006538768
49	0x3d67d9d4	0.05660422
50	0x3bcda2db	0.0062755174
51	0xbd1862fe	-0.03720378
52	0x3d291087	0.041275527
53	0x3d0bc9c4	0.034127966
54	0x3c2f37ab	0.010694425
55	0xbce1a51f	-0.027544556
56	0x3c5e5879	0.013570898
57	0xbcd0fd6f	-0.025511472
58	0xbbd13b09	-0.0063852114
59	0xbc2297dd	-0.009923902
60	0xbd567a7b	-0.0523629
61	0xbcff9dca	-0.03120317
62	0x3ca91a8c	0.020642541
63	0x3c143f7c	0.009048339
64	0x3c9d9eb9	0.019240724
65	0x3d273790	0.040824473
66	0xbd58b6d8	-0.05290875
67	0x3d6ab0ff	0.057297703
68	0xbd237f53	-0.039916348
69	0x3d582f12	0.052779265
70	0x3d49a9c6	0.049234174
71	0x3d240962	0.04004801
72	0xbd62a9f4	-0.05533786
73	0xbbab7060	-0.005231902
74	0xbcf5a814	-0.029987372
75	0xbd6aeaa1	-0.057352666
76	0xbcb65b37	-0.022260292
77	0x3d6adae5	0.05733766
78	0x3cc076db	0.023494175
79	0x3c9befbb	0.01903521
80	0x3cd97d4e	0.026549008
81	0x3ca52e25	0.020163605
82	0xbc81ec48	-0.015859738
83	0xbd0edd71	-0.03487915
84	0xbc1e41b5	-0.00965922
85	0xbd4df775	-0.05028482
86	0xbd6abfd0	-0.057311833
87	0xbd1c566d	-0.03816836
88	0x3c4c6490	0.012475148
89	0x3d5dfc52	0.05419571
90	0x3bc78f97	0.0060901153
91	0xbd58c237	-0.052919593
92	0xbcc0a38e	-0.023515489
93	0xbd451990	-0.04812008
94	0x3d4511a7	0.048112538
95	0x3d1a75c8	0.03770998
96	0xbc963e09	-0.018340128
97	0xbac7901c	-0.0015225443
98	0x3d18aaef	0.03727239
99	0xbbd168c3	-0.0063906624
100	0xbcf6dca1	-0.030134501
101	0xbcd7b680	-0.02633214
102	0x3d098a3a	0.03357909
103	0x3d0fd031	0.035110656
104	0x3c585d48	0.013205834
105	0x3d074769	0.033027086
106	0x3d65ed35	0.05613442
107	0xbc3bdac4	-0.011465732
108	0x3c3d5a6a	0.011557201
109	0x3c81f207	0.015862478
110	0x3cd22601	0.025652887
111	0x3abd9873	0.0014464989
112	0xbd0ed26a	-0.034868635
113	0x3d4ba1db	0.049714904
114	0xbd5afca0	-0.05346358
115	0x3d3d5785	0.046226043
116	0xbc1c8552	-0.00955327
117	0x3d26dc45	0.04073741
118	0x3c33a819	0.010965371
119	0x3c5d4658	0.013505541
120	0xbca5d524	-0.020243235
121	0xbd633969	-0.055474672
122	0xbd565aef	-0.052332815
123	0x3cc6b6b1	0.024257036
124	0xbd04e974	-0.0324492
125	0xbc82ed04	-0.015982158
126	0x3a257e6d	0.00063130894
127	0xbb9632d6	-0.004583697
128	0x3d34b107	0.04411414
129	0x3c90bd33	0.017668342
130	0xbd404e8b	-0.046949904
131	0xbcf4e00b	-0.029891988
132	0x3c20a4d5	0.009804924
133	0xbd3aa9fd	-0.04557227
134	0xbd6c3a05	-0.05767252
135	0x3cfa696c	0.030567847
136	0xbd1b475c	-0.03790985
137	0xbc190d79	-0.009341591
138	0xbd101eac	-0.0351855
139	0xbd4fadb9	-0.050702784
140	0x3d3a0c7f	0.045422073
141	0x3d54eafd	0.051981915
142	0xbd303664	-0.04302062
143	0xbd105f47	-0.035247114
144	0x3cad866d	0.021182263
145	0x3d0dfb21	0.034663323
146	0xbcc06f6c	-0.02349063
147	0x3cd812ef	0.026376216
148	0x3d265d4a	0.04061631
149	0xbd50f93b	-0.051018935
150	0xbd55db0d	-0.052210856
151	0x3d015de1	0.03158367
152	0xbd4b4d38	-0.04963419
153	0xbbe1b50a	-0.0068880366
154	0xbd649271	-0.05580372
155	0xbc15f2b8	-0.009152107
156	0xbcc5a615	-0.024127046
157	0xbd209233	-0.039201926
158	0x3c8b12c0	0.016976714
159	0x3ce9ad57	0.028525038
160	0xbb4de9ed	-0.0031419948
161	0x3cafaca4	0.021444626
162	0xbce0967d	-0.027415508
163	0xbd36ead6	-0.04465755
164	0xbd067baf	-0.032832798
165	0xbcf93182	-0.030419115
166	0x3d1a83ca	0.03772334
167	0xbc5d2345	-0.013497178
168	0xbc9a59e5	-0.018841693
169	0x3ccdd842	0.025127534
170	0xbd6a7e11	-0.057249133
171	0x3d4ee872	0.050514646
172	0x3c2e60d6	0.010643205
173	0xbd5cf575	-0.053945024
174	0xbd3e4125	-0.046448845
175	0xbd183511	-0.037159983
176	0xbc9e74e0	-0.01934284
177	0xbc4f620a	-0.012657652
178	0xbd364923	-0.044503342
179	0xbb7ede02	-0.0038889651
180	0x3c95446b	0.0182211
181	0x3d20abe4	0.039226428
182	0xbbeacd7f	-0.0071656103
183	0xbc1c2625	-0.009530579
184	0xbd259701	-0.04042721
185	0x3d52cf16	0.051467024
186	0x3ab42aaa	0.0013745625
187	0x3b0c893c	0.0021444103
188	0x3d438a7f	0.047739502
189	0x3d02f563	0.0319723
190	0xbcf4bc9b	-0.02987509
191	0x3cc006b4	0.023440696
192	0x3c179511	0.009251849
193	0x3cc2727d	0.023736233
194	0xbd166963	-0.0367216
195	0x3d16e6e0	0.036841273
196	0xbcc77642	-0.024348382
197	0x3b29dffc	0.0025920859
198	0xbd19b42e	-0.03752535
199	0x3c352bef	0.011057838
200	0x3cafa06e	0.021438804
201	0x3d543e6f	0.051817354
202	0xbd31662d	-0.043310333
203	0xbb239af3	-0.0024964183
204	0xbd013ee2	-0.03155411
205	0xbc8803c3	-0.016603356
206	0x3b73d989	0.0037208518
207	0x3b8c9e6c	0.0042913463
208	0x3ca99ce2	0.02070469
209	0x3bd72f4c	0.0065669175
210	0x3bb0f449	0.005400215
211	0x3ccb987f	0.02485299
212	0x3d465a37	0.04842588
213	0x3aaacc5a	0.0013030872
214	0xbc98ef94	-0.018668927
215	0x3cd6c175	0.026215294
216	0xbc2683d9	-0.010163271
217	0xbc3653b5	-0.011128356
218	0xbd56ce99	-0.05244312
219	0xbaf9c03b	-0.0019054482
220	0xbc59ad0a	-0.013285885
221	0xbbb165da	-0.005413753
222	0xbd5fa0a5	-0.054596562
223	0x3c8da4c6	0.017290484
224	0xbd3ccdbe	-0.04609465
225	0x3d3224b0	0.04349202
226	0x3d001b93	0.031276297
227	0x3d190aaa	0.037363686
228	0xbcc975ca	-0.024592299
229	0xbd0c8d50	-0.034314454
230	0xbd4331b7	-0.047654834
231	0xbcfa0656	-0.0305206
232	0x3cb5513b	0.02213346
233	0xbc981e29	-0.018569069
234	0xbc76fd2d	-0.01507501
235	0x3d6af873	0.057365846
236	0xbcd1540d	-0.025552774
237	0x3d6149ea	0.05500213
238	0xbca5e742	-0.020251874
239	0xbcb20dd1	-0.021735104
240	0x3d42702c	0.047470257
241	0x3d55fc50	0.052242577
242	0xbc2ae72b	-0.010431091
243	0x3d32e402	0.043674476
244	0xbcd36bfd	-0.025808329
245	0xbcf0b7c5	-0.029384503
246	0x3c5b0016	0.01336672
247	0xbd048834	-0.032356456
248	0x3d44694a	0.047951974
249	0xbc3fced5	-0.011707027
250	0x3c800305	0.01562644
251	0x3d4f2f9c	0.050582513
252	0xbc496fea	-0.012294749
253	0x3d1de7af	0.03855103
254	0x3d658f91	0.05604512
255	0xbca9d521	-0.02073151

fc1.bias f4 [64]
0	0xbd532c86	-0.051556133
1	0x3df71a70	0.120655894
2	0x3d68771d	0.05675422
3	0x3e0a0ad3	0.13480692
4	0x3b94048e	0.0045171445
5	0x3ea2b558	0.3177898
6	0xbc290d57	-0.010318122
7	0x3e458e91	0.19292666
8	0x3e08cb29	0.1335875
9	0x3e5967e0	0.21231031
10	0x3e08ee94	0.1337226
11	0x3d3730be	0.04472422
12	0x3e66a555	0.22524007
13	0xbd412def	-0.047162946
14	0x3e03791d	0.1283917
15	0xbb4db744	-0.0031389752
16	0xbcb1edce	-0.02171984
17	0xbd6358fa	-0.055504777
18	0x3e0e5099	0.13897933
19	0xbc95a974	-0.018269278
20	0xbcf08bef	-0.0293636
21	0x3e56ff91	0.20995928
22	0x3d9e7697	0.07737463
23	0x3e715561	0.23567726
24	0x3df8d5f6	0.12150185
25	0x3e19cc82	0.1501942
26	0xbd65dbf5	-0.05611797
27	0x3e307f79	0.17236127
28	0xbd08f6ab	-0.033438366
29	0xbd3e7084	-0.046494022
30	0x3e5095d8	0.20369661
31	0xbd5adce6	-0.05343332
32	0xbd0fdcdd	-0.03512274
33	0xbcf4fd36	-0.029905897
34	0xbcb28efc	-0.021796696
35	0x3e2fee9d	0.17180867
36	0x3dc7ddf8	0.09759134
37	0x3d9027d4	0.070388466
38	0xbc9f6870	-0.01945898
39	0xbd261d1a	-0.040555097
40	0xbd2248f5	-0.03962036
41	0x3de919c0	0.113818645
42	0x3de07fcf	0.109618776
43	0x3e03a977	0.12857614
44	0xbd34360c	-0.043996856
45	0x3e5b33ca	0.21406475
46	0x3bb091fb	0.005388496
47	0x3cafc36f	0.021455495
48	0x3e0a9ad1	0.1353562
49	0x3e058aa3	0.13041167
50	0xbcd81df2	-0.026381467
51	0x3d5eb864	0.054375067
52	0xbd2ca5fb	-0.04215048
53	0x3db05527	0.086099915
54	0x3ceba523	0.028765267
55	0xbb25f196	-0.0025320998
56	0x3e09cfa0	0.13458109
57	0x3d61c62c	0.055120632
58	0x3e0090e9	0.12555279
59	0x3e176473	0.14784412
60	0x3db13285	0.08652214
61	0xbd5e4daf	-0.054273304
62	0x3e1cb276	0.15302452
63	0x3d0ca85e	0.034340255

fc2.weight f4 [2, 64]
0	0xbdbd0ba6	-0.092307374
1	0x3ee1355e	0.43986028
2	0xbef31a57	-0.47481033
3	0x3ead40c0	0.33838463
4	0xbdd0de99	-0.10198707
5	0x3eaf205a	0.3420437
6	0xbdc327e2	-0.095290914
7	0x3eb122e4	0.34596932
8	0x3ea15105	0.31507125
9	0x3e99d5e5	0.30046
10	0x3eca1357	0.3946788
11	0xbf0bd4a5	-0.54621345
12	0x3e85156b	0.25992903
13	0xbdf3abba	-0.118979886
14	0x3ed1b6fa	0.40959913
15	0xbd883872	-0.06651391
16	0x3d8cf76c	0.068831295
17	0xbb6a3e00	-0.0035742521
18	0x3ee3573c	0.44402492
19	0xbdb889a2	-0.090106264
20	0xbd557168	-0.052110106
21	0x3e9d1a73	0.30684242
22	0x3ed4e00e	0.4157719
23	0x3eb80059	0.35937765
24	0x3ea24224	0.31691086
25	0x3e9d30a8	0.30701184
26	0x3da20018	0.07910174
27	0x3eb329c4	0.34992802
28	0x3d2d489c	0.042305574
29	0x3cf2f868	0.029659465
30	0x3e9e05d2	0.30863816
31	0xbbc88ce0	-0.0061203092
32	0xbdff1e56	-0.12456958
33	0x3dfa7b8e	0.122305974
34	0xbc8271a0	-0.015923321
35	0x3ef32bbf	0.47494313
36	0xbebeeb40	-0.37288857
37	0xbeab7bea	-0.33492976
38	0xbc93725a	-0.017998863
39	0x3de70e1e	0.112819895
40	0x3bafa6c0	0.0053604543
41	0x3ebc3902	0.36762244
42	0x3ee05c53	0.43820438
43	0x3e9f7f5e	0.3115186
44	0xbda60b00	-0.08107567
45	0x3e844c71	0.2583957
46	0xbf0869e6	-0.5328659
47	0xbf01270e	-0.5045022
48	0x3ecba1f9	0.39772013
49	0x3ed60422	0.41800028
50	0x3dc251f2	0.09488286
51	0xbeef0bd4	-0.46688712
52	0xbd7216d0	-0.059103787
53	0xbedb3d67	-0.42820284
54	0xbf0f6de4	-0.56027055
55	0xbdcd6cad	-0.10030494
56	0x3ede1d00	0.433815
57	0xbeca2474	-0.39480937
58	0x3ebc476c	0.3677324
59	0x3ee3d1e1	0.44496062
60	0x3ed519fa	0.4162138
61	0xbac61280	-0.0015111715
62	0x3ea53ff3	0.32275352
63	0xbec90290	-0.39259768
64	0x3d92a788	0.0716086
65	0xbea69b45	-0.32540336
66	0x3ecb153f	0.39664647
67	0xbeae062a	-0.33989078
68	0x3d8fd1f7	0.070224695
69	0xbf06408c	-0.5244224
70	0xbd62088c	-0.055183932
71	0xbeac7b8a	-0.33688003
72	0xbec37963	-0.38178548
73	0xbeb0e751	-0.3455148
74	0xbeb51f0d	-0.35375252
75	0x3f150068	0.58203745
76	0xbee2f96b	-0.44330916
77	0xbdd607c6	-0.104507014
78	0xbeb73513	-0.3578268
79	0x3dd85822	0.10563685
80	0xbd427240	-0.04747224
81	0xbd53b20c	-0.05168347
82	0xbe9a4e17	-0.30137703
83	0xbd2a5324	-0.041583195
84	0x3b351880	0.0027633011
85	0xbed55bf3	-0.41671714
86	0xbeec3226	-0.4613201
87	0xbed69f3a	-0.41918355
88	0xbecff98f	-0.40620086
89	0xbedafdbb	-0.42771706
90	0x3d271908	0.040795356
91	0xbeab490d	-0.3345417
92	0x3c17c570	0.009263381
93	0x3db2e756	0.0873553
94	0xbed7973a	-0.42107564
95	0xbd0f9a0c	-0.03505902
96	0xbdb26526	-0.08710699
97	0xbcc3d678	-0.023905978
98	0x3d1d0690	0.038336337
99	0xbe874d2c	-0.26426065
100	0x3eccda0b	0.40010104
101	0x3efa803e	0.48925966
102	0xbcc67bd6	-0.024228971
103	0xbdb734c2	-0.0894561
104	0xbc827948	-0.015926972
105	0xbeef79c7	-0.46772596
106	0xbeb46ccb	-0.35239252
107	0xbeb70c18	-0.35751414
108	0xbdaf4aa6	-0.0855916
109	0xbebbfeac	-0.36717737
110	0x3f07c25c	0.53030944
111	0x3ed65f4b	0.41869578
112	0xbeb8d411	-0.36099294
113	0xbeecfe75	-0.46287885
114	0xbdf0f310	-0.117651105
115	0x3eeff851	0.46869138
116	0xbd48a000	-0.048980713
117	0x3ed91ab9	0.424032
118	0x3ed72033	0.42016754
119	0x3c6033f4	0.013684262
120	0xbe8fe179	-0.2810171
121	0x3ed0c3ef	0.40774485
122	0xbec6f092	-0.38855416
123	0xbea750a5	-0.32678714
124	0xbec9936b	-0.39370283
125	0xbd83fc10	-0.064445615
126	0xbedad70b	-0.4274219
127	0x3ef2cc7e	0.4742164

fc2.bias f4 [2]
0	0x3e1d11ff	0.15338896
1	0xbcc4a31c	-0.024003558

exp_avg f4 [64, 300]
0	0x00000000	0.0
1	0x00000000	0.0
2	0x00000000	0.0
3	0x00000000	0.0
4	0x00000000	0.0
5	0x00000000	0.0
6	0x00000000	0.0
7	0x00000000	0.0
8	0x00000000	0.0
9	0x00000000	0.0
10	0x00000000	0.0
11	0x00000000	0.0
12	0x00000000	0.0
13	0x00000000	0.0
14	0x00000000	0.0
15	0x00000000	0.0
16	0x00000000	0.0
17	0x00000000	0.0
18	0x00000000	0.0
19	0x00000000	0.0
20	0x00000000	0.0
21	0x00000000	0.0
22	0x00000000	0.0
23	0x00000000	0.0
24	0x00000000	0.0
25	0x00000000	0.0
26	0x00000000	0.0
27	0x00000000	0.0
28	0x00000000	0.0
29	0x00000000	0.0
30	0x00000000	0.0
31	0x00000000	0.0
32	0x00000000	0.0
33	0x00000000	0.0
34	0x00000000	0.0
35	0x00000000	0.0
36	0x00000000	0.0
37	0x00000000	0.0
38	0x00000000	0.0
39	0x00000000	0.0
40	0x00000000	0.0
41	0x00000000	0.0
42	0x00000000	0.0
43	0x00000000	0.0
44	0x00000000	0.0
45	0x00000000	0.0
46	0x00000000	0.0
47	0x00000000	0.0
48	0x00000000	0.0
49	0x00000000	0.0
50	0x00000000	0.0
51	0x00000000	0.0
52	0x00000000	0.0
53	0x00000000	0.0
54	0x00000000	0.0
55	0x00000000	0.0
56	0x00000000	0.0
57	0x00000000	0.0
58	0x00000000	0.0
59	0x00000000	0.0
60	0x00000000	0.0
61	0x00000000	0.0
62	0x00000000	0.0
63	0x00000000	0.0
64	0x00000000	0.0
65	0x00000000	0.0
66	0x00000000	0.0
67	0x00000000	0.0
68	0x00000000	0.0
69	0x00000000	0.0
70	0x00000000	0.0
71	0x00000000	0.0
72	0x00000000	0.0
73	0x00000000	0.0
74	0x00000000	0.0
75	0x00000000	0.0
76	0x00000000	0.0
77	0x00000000	0.0
78	0x00000000	0.0
79	0x00000000	0.0
80	0x00000000	0.0
81	0x00000000	0.0
82	0x00000000	0.0
83	0x00000000	0.0
84	0x00000000	0.0
85	0x00000000	0.0
86	0x00000000	0.0
87	0x00000000	0.0
88	0x00000000	0.0
89	0x00000000	0.0
90	0x00000000	0.0
91	0x00000000	0.0
92	0x00000000	0.0
93	0x00000000	0.0
94	0x00000000	0.0
95	0x00000000	0.0
96	0x00000000	0.0
97	0x00000000	0.0
98	0x00000000	0.0
99	0x00000000	0.0
100	0x00000000	0.0
101	0x00000000	0.0
102	0x00000000	0.0
103	0x00000000	0.0
104	0x00000000	0.0
105	0x00000000	0.0
106	0x00000000	0.0
107	0x00000000	0.0
108	0x00000000	0.0
109	0x00000000	0.0
110	0x00000000	0.0
111	0x00000000	0.0
112	0x00000000	0.0
113	0x00000000	0.0
114	0x00000000	0.0
115	0x00000000	0.0
116	0x00000000	0.0
117	0x00000000	0.0
118	0x00000000	0.0
119	0x00000000	0.0
120	0x00000000	0.0
121	0x00000000	0.0
122	0x00000000	0.0
123	0x00000000	0.0
124	0x00000000	0.0
125	0x00000000	0.0
126	0x00000000	0.0
127	0x00000000	0.0
128	0x00000000	0.0
129	0x00000000	0.0
130	0x00000000	0.0
131	0x00000000	0.0
132	0x00000000	0.0
133	0x00000000	0.0
134	0x00000000	0.0
135	0x00000000	0.0
136	0x00000000	0.0
137	0x00000000	0.0
138	0x00000000	0.0
139	0x00000000	0.0
140	0x00000000	0.0
141	0x00000000	0.0
142	0x00000000	0.0
143	0x00000000	0.0
144	0x00000000	0.0
145	0x00000000	0.0
146	0x00000000	0.0
147	0x00000000	0.0
148	0x00000000	0.0
149	0x00000000	0.0
150	0x00000000	0.0
151	0x00000000	0.0
152	0x00000000	0.0
153	0x00000000	0.0
154	0x00000000	0.0
155	0x00000000	0.0
156	0x00000000	0.0
157	0x00000000	0.0
158	0x00000000	0.0
159	0x00000000	0.0
160	0x00000000	0.0
161	0x00000000	0.0
162	0x00000000	0.0
163	0x00000000	0.0
164	0x00000000	0.0
165	0x00000000	0.0
166	0x00000000	0.0
167	0x00000000	0.0
168	0x00000000	0.0
169	0x00000000	0.0
170	0x00000000	0.0
171	0x00000000	0.0
172	0x00000000	0.0
173	0x00000000	0.0
174	0x00000000	0.0
175	0x00000000	0.0
176	0x00000000	0.0
177	0x00000000	0.0
178	0x00000000	0.0
179	0x00000000	0.0
180	0x00000000	0.0
181	0x00000000	0.0
182	0x00000000	0.0
183	0x00000000	0.0
184	0x00000000	0.0
185	0x00000000	0.0
186	0x00000000	0.0
187	0x00000000	0.0
188	0x00000000	0.0
189	0x00000000	0.0
190	0x00000000	0.0
191	0x00000000	0.0
192	0x00000000	0.0
193	0x00000000	0.0
194	0x00000000	0.0
195	0x00000000	0.0
196	0x00000000	0.0
197	0x00000000	0.0
198	0x00000000	0.0
199	0x00000000	0.0
200	0x00000000	0.0
201	0x00000000	0.0
202	0x00000000	0.0
203	0x00000000	0.0
204	0x00000000	0.0
205	0x00000000	0.0
206	0x00000000	0.0
207	0x00000000	0.0
208	0x00000000	0.0
209	0x00000000	0.0
210	0x00000000	0.0
211	0x00000000	0.0
212	0x00000000	0.0
213	0x00000000	0.0
214	0x00000000	0.0
215	0x00000000	0.0
216	0x00000000	0.0
217	0x00000000	0.0
218	0x00000000	0.0
219	0x00000000	0.0
220	0x00000000	0.0
221	0x00000000	0.0
222	0x00000000	0.0
223	0x00000000	0.0
224	0x00000000	0.0
225	0x00000000	0.0
226	0x00000000	0.0
227	0x00000000	0.0
228	0x00000000	0.0
229	0x00000000	0.0
230	0x00000000	0.0
231	0x00000000	0.0
232	0x00000000	0.0
233	0x00000000	0.0
234	0x00000000	0.0
235	0x00000000	0.0
236	0x00000000	0.0
237	0x00000000	0.0
238	0x00000000	0.0
239	0x00000000	0.0
240	0x00000000	0.0
241	0x00000000	0.0
242	0x00000000	0.0
243	0x00000000	0.0
244	0x00000000	0.0
245	0x00000000	0.0
246	0x00000000	0.0
247	0x00000000	0.0
248	0x00000000	0.0
249	0x00000000	0.0
250	0x00000000	0.0
251	0x00000000	0.0
252	0x00000000	0.0
253	0x00000000	0.0
254	0x00000000	0.0
255	0x00000000	0.0

exp_avg_sq f4 [64, 300]
0	0x00000000	0.0
1	0x00000000	0.0
2	0x00000000	0.0
3	0x00000000	0.0
4	0x00000000	0.0
5	0x00000000	0.0
6	0x00000000	0.0
7	0x00000000	0.0
8	0x00000000	0.0
9	0x00000000	0.0
10	0x00000000	0.0
11	0x00000000	0.0
12	0x00000000	0.0
13	0x00000000	0.0
14	0x00000000	0.0
15	0x00000000	0.0
16	0x00000000	0.0
17	0x00000000	0.0
18	0x00000000	0.0
19	0x00000000	0.0
20	0x00000000	0.0
21	0x00000000	0.0
22	0x00000000	0.0
23	0x00000000	0.0
24	0x00000000	0.0
25	0x00000000	0.0
26	0x00000000	0.0
27	0x00000000	0.0
28	0x00000000	0.0
29	0x00000000	0.0
30	0x00000000	0.0
31	0x00000000	0.0
32	0x00000000	0.0
33	0x00000000	0.0
34	0x00000000	0.0
35	0x00000000	0.0
36	0x00000000	0.0
37	0x00000000	0.0
38	0x00000000	0.0
39	0x00000000	0.0
40	0x00000000	0.0
41	0x00000000	0.0
42	0x00000000	0.0
43	0x00000000	0.0
44	0x00000000	0.0
45	0x00000000	0.0
46	0x00000000	0.0
47	0x00000000	0.0
48	0x00000000	0.0
49	0x00000000	0.0
50	0x00000000	0.0
51	0x00000000	0.0
52	0x00000000	0.0
53	0x00000000	0.0
54	0x00000000	0.0
55	0x00000000	0.0
56	0x00000000	0.0
57	0x00000000	0.0
58	0x00000000	0.0
59	0x00000000	0.0
60	0x00000000	0.0
61	0x00000000	0.0
62	0x00000000	0.0
63	0x00000000	0.0
64	0x00000000	0.0
65	0x00000000	0.0
66	0x00000000	0.0
67	0x00000000	0.0
68	0x00000000	0.0
69	0x00000000	0.0
70	0x00000000	0.0
71	0x00000000	0.0
72	0x00000000	0.0
73	0x00000000	0.0
74	0x00000000	0.0
75	0x00000000	0.0
76	0x00000000	0.0
77	0x00000000	0.0
78	0x00000000	0.0
79	0x00000000	0.0
80	0x00000000	0.0
81	0x00000000	0.0
82	0x00000000	0.0
83	0x00000000	0.0
84	0x00000000	0.0
85	0x00000000	0.0
86	0x00000000	0.0
87	0x00000000	0.0
88	0x00000000	0.0
89	0x00000000	0.0
90	0x00000000	0.0
91	0x00000000	0.0
92	0x00000000	0.0
93	0x00000000	0.0
94	0x00000000	0.0
95	0x00000000	0.0
96	0x00000000	0.0
97	0x00000000	0.0
98	0x00000000	0.0
99	0x00000000	0.0
100	0x00000000	0.0
101	0x00000000	0.0
102	0x00000000	0.0
103	0x00000000	0.0
104	0x00000000	0.0
105	0x00000000	0.0
106	0x00000000	0.0
107	0x00000000	0.0
108	0x00000000	0.0
109	0x00000000	0.0
110	0x00000000	0.0
111	0x00000000	0.0
112	0x00000000	0.0
113	0x00000000	0.0
114	0x00000000	0.0
115	0x00000000	0.0
116	0x00000000	0.0
117	0x00000000	0.0
118	0x00000000	0.0
119	0x00000000	0.0
120	0x00000000	0.0
121	0x00000000	0.0
122	0x00000000	0.0
123	0x00000000	0.0
124	0x00000000	0.0
125	0x00000000	0.0
126	0x00000000	0.0
127	0x00000000	0.0
128	0x00000000	0.0
129	0x00000000	0.0
130	0x00000000	0.0
131	0x00000000	0.0
132	0x00000000	0.0
133	0x00000000	0.0
134	0x00000000	0.0
135	0x00000000	0.0
136	0x00000000	0.0
137	0x00000000	0.0
138	0x00000000	0.0
139	0x00000000	0.0
140	0x00000000	0.0
141	0x00000000	0.0
142	0x00000000	0.0
143	0x00000000	0.0
144	0x00000000	0.0
145	0x00000000	0.0
146	0x00000000	0.0
147	0x00000000	0.0
148	0x00000000	0.0
149	0x00000000	0.0
150	0x00000000	0.0
151	0x00000000	0.0
152	0x00000000	0.0
153	0x00000000	0.0
154	0x00000000	0.0
155	0x00000000	0.0
156	0x00000000	0.0
157	0x00000000	0.0
158	0x00000000	0.0
159	0x00000000	0.0
160	0x00000000	0.0
161	0x00000000	0.0
162	0x00000000	0.0
163	0x00000000	0.0
164	0x00000000	0.0
165	0x00000000	0.0
166	0x00000000	0.0
167	0x00000000	0.0
168	0x00000000	0.0
169	0x00000000	0.0
170	0x00000000	0.0
171	0x00000000	0.0
172	0x00000000	0.0
173	0x00000000	0.0
174	0x00000000	0.0
175	0x00000000	0.0
176	0x00000000	0.0
177	0x00000000	0.0
178	0x00000000	0.0
179	0x00000000	0.0
180	0x00000000	0.0
181	0x00000000	0.0
182	0x00000000	0.0
183	0x00000000	0.0
184	0x00000000	0.0
185	0x00000000	0.0
186	0x00000000	0.0
187	0x00000000	0.0
188	0x00000000	0.0
189	0x00000000	0.0
190	0x00000000	0.0
191	0x00000000	0.0
192	0x00000000	0.0
193	0x00000000	0.0
194	0x00000000	0.0
195	0x00000000	0.0
196	0x00000000	0.0
197	0x00000000	0.0
198	0x00000000	0.0
199	0x00000000	0.0
200	0x00000000	0.0
201	0x00000000	0.0
202	0x00000000	0.0
203	0x00000000	0.0
204	0x00000000	0.0
205	0x00000000	0.0
206	0x00000000	0.0
207	0x00000000	0.0
208	0x00000000	0.0
209	0x00000000	0.0
210	0x00000000	0.0
211	0x00000000	0.0
212	0x00000000	0.0
213	0x00000000	0.0
214	0x00000000	0.0
215	0x00000000	0.0
216	0x00000000	0.0
217	0x00000000	0.0
218	0x00000000	0.0
219	0x00000000	0.0
220	0x00000000	0.0
221	0x00000000	0.0
222	0x00000000	0.0
223	0x00000000	0.0
224	0x00000000	0.0
225	0x00000000	0.0
226	0x00000000	0.0
227	0x00000000	0.0
228	0x00000000	0.0
229	0x00000000	0.0
230	0x00000000	0.0
231	0x00000000	0.0
232	0x00000000	0.0
233	0x00000000	0.0
234	0x00000000	0.0
235	0x00000000	0.0
236	0x00000000	0.0
237	0x00000000	0.0
238	0x00000000	0.0
239	0x00000000	0.0
240	0x00000000	0.0
241	0x00000000	0.0
242	0x00000000	0.0
243	0x00000000	0.0
244	0x00000000	0.0
245	0x00000000	0.0
246	0x00000000	0.0
247	0x00000000	0.0
248	0x00000000	0.0
249	0x00000000	0.0
250	0x00000000	0.0
251	0x00000000	0.0
252	0x00000000	0.0
253	0x00000000	0.0
254	0x00000000	0.0
255	0x00000000	0.0

exp_avg f4 [64]
0	0x00000000	0.0
1	0xb96135c7	-0.00021477706
2	0x38f15bc6	0.0001150887
3	0xb941587f	-0.00018438882
4	0x1723d811	5.2940855e-25
5	0xb93365f7	-0.00017108755
6	0x00000000	0.0
7	0xb91edd06	-0.00015150392
8	0xb93cff43	-0.0001802417
9	0xb9164898	-0.00014332158
10	0xb94ea8d0	-0.00019708578
11	0x391bc416	0.00014855
12	0xb9232b0e	-0.0001556093
13	0x00000000	0.0
14	0xb9419c58	-0.00018464157
15	0x16845686	2.1380354e-25
16	0x00000000	0.0
17	0x00000000	0.0
18	0xb93c82f9	-0.00017977868
19	0x00000000	0.0
20	0x00000000	0.0
21	0xb928623e	-0.00016058327
22	0xb967761a	-0.00022073873
23	0xb934c08e	-0.0001723787
24	0xb93ced63	-0.0001801751
25	0xb9323409	-0.00016994787
26	0x00000000	0.0
27	0xb92cf4fa	-0.00016494459
28	0x00000000	0.0
29	0x00000000	0.0
30	0xb927ece6	-0.00016014613
31	0x00000000	0.0
32	0x00000000	0.0
33	0x00000000	0.0
34	0x00000000	0.0
35	0xb93334e9	-0.00017090481
36	0x38d760fc	0.00010270064
37	0x38e58103	0.00010943601
38	0x12dbacd0	1.3863445e-27
39	0x00000000	0.0
40	0x00000000	0.0
41	0xb960b2ff	-0.00021428986
42	0xb95d8365	-0.0002112515
43	0xb92926fa	-0.00016131616
44	0x00000000	0.0
45	0xb9117981	-0.00013873541
46	0x3912ce49	0.00014000492
47	0x38f27241	0.00011560741
48	0xb94a7a12	-0.00019309696
49	0xb95607fc	-0.00020411605
50	0x00000000	0.0
51	0x390237e8	0.00012418593
52	0x00000000	0.0
53	0x38ee29bd	0.00011356499
54	0x390811df	0.00012976628
55	0x16e2e53e	3.6656941e-25
56	0xb93cbafa	-0.00017998731
57	0x38deb484	0.000106194086
58	0xb9588d20	-0.00020651938
59	0xb9319a17	-0.00016937438
60	0xb9681927	-0.00022134614
61	0x00000000	0.0
62	0xb90e1aca	-0.00013552155
63	0x38f0fe6c	0.000114914816

exp_avg_sq f4 [64]
0	0x00000000	0.0
1	0x36e84b2c	6.92289e-06
2	0x3694f1c5	4.4388894e-06
3	0x36d4f0a8	6.3461084e-06
4	0x36abb3a2	5.117109e-06
5	0x344b1054	1.8911788e-07
6	0x00000000	0.0
7	0x35146385	5.5279116e-07
8	0x36995342	4.569448e-06
9	0x34c2e190	3.6299434e-07
10	0x36b6ba0e	5.4456823e-06
11	0x362c821c	2.570573e-06
12	0x34a5d0f1	3.088567e-07
13	0x00000000	0.0
14	0x360b9b39	2.0802966e-06
15	0x361ab18e	2.3051139e-06
16	0x00000000	0.0
17	0x00000000	0.0
18	0x36250d0c	2.459451e-06
19	0x00000000	0.0
20	0x00000000	0.0
21	0x34db8aec	4.0893008e-07
22	0x373cd929	1.1256235e-05
23	0x34c1ecfb	3.6121477e-07
24	0x36969d3c	4.488653e-06
25	0x359eb874	1.18256e-06
26	0x00000000	0.0
27	0x3595de96	1.1166146e-06
28	0x00000000	0.0
29	0x00000000	0.0
30	0x34f10002	4.4889754e-07
31	0x00000000	0.0
32	0x00000000	0.0
33	0x00000000	0.0
34	0x00000000	0.0
35	0x35830232	9.7609e-07
36	0x33de1e0c	1.0343146e-07
37	0x3448e664	1.8710267e-07
38	0x2faeb4ac	3.177879e-10
39	0x00000000	0.0
40	0x00000000	0.0
41	0x36906f55	4.304495e-06
42	0x371d1d10	9.364696e-06
43	0x365c23a1	3.2803293e-06
44	0x00000000	0.0
45	0x34c3a0bf	3.643854e-07
46	0x343aad71	1.7385698e-07
47	0x352dcfda	6.4749986e-07
48	0x36538202	3.1517125e-06
49	0x365c3d2c	3.2818161e-06
50	0x00000000	0.0
51	0x36832dec	3.9094502e-06
52	0x00000000	0.0
53	0x34b96dd0	3.4538834e-07
54	0x3467e835	2.1598028e-07
55	0x361cdd17	2.3374503e-06
56	0x365021eb	3.1014158e-06
57	0x35fabf45	1.8682118e-06
58	0x372e8ce4	1.0404012e-05
59	0x3586e9bc	1.0051804e-06
60	0x37965d8c	1.7924955e-05
61	0x00000000	0.0
62	0x35314a60	6.604587e-07
63	0x360ffdc4	2.1456372e-06

exp_avg f4 [2, 64]
0	0x00000000	0.0
1	0xbae65dcd	-0.0017575562
2	0x3b09089a	0.0020909668
3	0xbadf5bf6	-0.0017040956
4	0x95733cff	-4.9121577e-26
5	0xbb4062c5	-0.0029355746
6	0x00000000	0.0
7	0xbb1c7d80	-0.0023878515
8	0xbaea7a0a	-0.0017889154
9	0xbb1f4949	-0.0024305156
10	0xbaed9a38	-0.0018127626
11	0x3b1d9b4e	0.0024048868
12	0xbb2508ba	-0.0025182203
13	0x00000000	0.0
14	0xbb0859c6	-0.0020805462
15	0x945cdd6d	-1.115083e-26
16	0x00000000	0.0
17	0x00000000	0.0
18	0xbb05c0a7	-0.002040902
19	0x00000000	0.0
20	0x00000000	0.0
21	0xbb231a5f	-0.0024887545
22	0xbade9b5a	-0.0016983554
23	0xbb2dd910	-0.0026527084
24	0xbaf27399	-0.0018497586
25	0xbb14393e	-0.0022617127
26	0x00000000	0.0
27	0xbb0ddf5e	-0.002164803
28	0x00000000	0.0
29	0x00000000	0.0
30	0xbb241280	-0.002503544
31	0x00000000	0.0
32	0x00000000	0.0
33	0x00000000	0.0
34	0x00000000	0.0
35	0xbb1727d6	-0.0023064516
36	0x3b35301a	0.002764708
37	0x3b2ef1ec	0.002669449
38	0x9252ebf6	-6.655516e-28
39	0x00000000	0.0
40	0x00000000	0.0
41	0xbb007053	-0.00195982
42	0xbadc6c02	-0.0016816857
43	0xbaf54326	-0.0018712028
44	0x00000000	0.0
45	0xbb1f7cee	-0.0024335939
46	0x3b4ecf33	0.0031556606
47	0x3b2be6ec	0.002623017
48	0xbb04367f	-0.0020174084
49	0xbb05d82e	-0.0020423043
50	0x00000000	0.0
51	0x3afc1120	0.0019231178
52	0x00000000	0.0
53	0x3b105eae	0.002202909
54	0x3b389668	0.002816582
55	0x957122af	-4.8696923e-26
56	0xbafbb0db	-0.0019202487
57	0x3b12cd91	0.002240036
58	0xbad30aab	-0.0016101202
59	0xbb178662	-0.002312087
60	0xbac711bd	-0.0015187782
61	0x00000000	0.0
62	0xbb1ea47d	-0.002420693
63	0x3b096e05	0.0020970118
64	0x00000000	0.0
65	0x3ae65dcb	0.001757556
66	0xbb09089a	-0.0020909668
67	0x3adf5bf4	0.0017040954
68	0x15733cff	4.9121577e-26
69	0x3b4062c4	0.0029355744
70	0x00000000	0.0
71	0x3b1c7d81	0.0023878517
72	0x3aea7a0a	0.0017889154
73	0x3b1f4945	0.0024305147
74	0x3aed9a35	0.0018127622
75	0xbb1d9b4e	-0.0024048868
76	0x3b2508b7	0.0025182196
77	0x00000000	0.0
78	0x3b0859c6	0.0020805462
79	0x145cdd6d	1.115083e-26
80	0x00000000	0.0
81	0x00000000	0.0
82	0x3b05c0a7	0.002040902
83	0x00000000	0.0
84	0x00000000	0.0
85	0x3b231a5d	0.002488754
86	0x3ade9b58	0.0016983552
87	0x3b2dd90d	0.0026527077
88	0x3af27396	0.0018497582
89	0x3b14393e	0.0022617127
90	0x00000000	0.0
91	0x3b0ddf5d	0.0021648027
92	0x00000000	0.0
93	0x00000000	0.0
94	0x3b241280	0.002503544
95	0x00000000	0.0
96	0x00000000	0.0
97	0x00000000	0.0
98	0x00000000	0.0
99	0x3b1727d4	0.002306451
100	0xbb35301a	-0.002764708
101	0xbb2ef1ec	-0.002669449
102	0x1252ebf6	6.655516e-28
103	0x00000000	0.0
104	0x00000000	0.0
105	0x3b007053	0.00195982
106	0x3adc6c01	0.0016816856
107	0x3af54323	0.0018712025
108	0x00000000	0.0
109	0x3b1f7ceb	0.0024335932
110	0xbb4ecf33	-0.0031556606
111	0xbb2be6eb	-0.0026230167
112	0x3b04367c	0.0020174077
113	0x3b05d82e	0.0020423043
114	0x00000000	0.0
115	0xbafc1121	-0.0019231179
116	0x00000000	0.0
117	0xbb105eaf	-0.0022029092
118	0xbb38966a	-0.0028165826
119	0x157122af	4.8696923e-26
120	0x3afbb0d8	0.0019202484
121	0xbb12cd91	-0.002240036
122	0x3ad30aa9	0.00161012
123	0x3b178660	0.0023120865
124	0x3ac711bc	0.001518778
125	0x00000000	0.0
126	0x3b1ea47b	0.0024206925
127	0xbb096e05	-0.0020970118

exp_avg_sq f4 [2, 64]
0	0x00000000	0.0
1	0x378bee3b	1.6681026e-05
2	0x372c3042	1.0263235e-05
3	0x37a4edc9	1.966105e-05
4	0x33a9ee85	7.913062e-08
5	0x37b6308f	2.1718703e-05
6	0x00000000	0.0
7	0x37cafe9b	2.4198836e-05
8	0x3793b85f	1.760962e-05
9	0x37edf061	2.8364537e-05
10	0x378933cf	1.6355798e-05
11	0x36b696dd	5.4415855e-06
12	0x37d9f665	2.5983152e-05
13	0x00000000	0.0
14	0x3795a618	1.7839528e-05
15	0x3227f559	9.776465e-09
16	0x00000000	0.0
17	0x00000000	0.0
18	0x379cfbad	1.8713845e-05
19	0x00000000	0.0
20	0x00000000	0.0
21	0x37d9dfe6	2.5972677e-05
22	0x3778043d	1.4782939e-05
23	0x37e5c4b4	2.7390524e-05
24	0x3793b8da	1.7609844e-05
25	0x37ba5704	2.2213448e-05
26	0x00000000	0.0
27	0x37b01db5	2.0994668e-05
28	0x00000000	0.0
29	0x00000000	0.0
30	0x37d74772	2.5663267e-05
31	0x00000000	0.0
32	0x00000000	0.0
33	0x00000000	0.0
34	0x00000000	0.0
35	0x37b8aedc	2.2015935e-05
36	0x380519dc	3.1733754e-05
37	0x37cf0847	2.4680177e-05
38	0x2eab730f	7.796618e-11
39	0x00000000	0.0
40	0x00000000	0.0
41	0x378cc3e0	1.6780512e-05
42	0x377619d6	1.4668758e-05
43	0x379cef0e	1.8707968e-05
44	0x00000000	0.0
45	0x37f23ccc	2.8876959e-05
46	0x37225d5c	9.677689e-06
47	0x35c76fda	1.4859208e-06
48	0x379cb162	1.867925e-05
49	0x379382e6	1.758472e-05
50	0x00000000	0.0
51	0x37ce2b98	2.4577414e-05
52	0x00000000	0.0
53	0x38112c07	3.4611698e-05
54	0x37628ce9	1.3503458e-05
55	0x33a38956	7.61526e-08
56	0x3799bd3e	1.8327144e-05
57	0x37b3b829	2.1424219e-05
58	0x3785d7d4	1.5955338e-05
59	0x37b68403	2.1757563e-05
60	0x377e1331	1.5144048e-05
61	0x00000000	0.0
62	0x37cedcdd	2.4659961e-05
63	0x37bd8815	2.2593924e-05
64	0x00000000	0.0
65	0x378bee3a	1.6681024e-05
66	0x372c3041	1.0263234e-05
67	0x37a4edca	1.9661053e-05
68	0x33a9ee85	7.913062e-08
69	0x37b6308f	2.1718703e-05
70	0x00000000	0.0
71	0x37cafe9b	2.4198836e-05
72	0x3793b85e	1.7609618e-05
73	0x37edf060	2.8364535e-05
74	0x378933d0	1.63558e-05
75	0x36b696dc	5.441585e-06
76	0x37d9f664	2.598315e-05
77	0x00000000	0.0
78	0x3795a617	1.7839526e-05
79	0x3227f559	9.776465e-09
80	0x00000000	0.0
81	0x00000000	0.0
82	0x379cfbaf	1.8713848e-05
83	0x00000000	0.0
84	0x00000000	0.0
85	0x37d9dfe6	2.5972677e-05
86	0x3778043d	1.4782939e-05
87	0x37e5c4b5	2.7390526e-05
88	0x3793b8da	1.7609844e-05
89	0x37ba5703	2.2213446e-05
90	0x00000000	0.0
91	0x37b01db5	2.0994668e-05
92	0x00000000	0.0
93	0x00000000	0.0
94	0x37d7476f	2.5663261e-05
95	0x00000000	0.0
96	0x00000000	0.0
97	0x00000000	0.0
98	0x00000000	0.0
99	0x37b8aedc	2.2015935e-05
100	0x380519de	3.173376e-05
101	0x37cf0849	2.4680181e-05
102	0x2eab7313	7.796621e-11
103	0x00000000	0.0
104	0x00000000	0.0
105	0x378cc3df	1.678051e-05
106	0x377619d8	1.466876e-05
107	0x379cef0d	1.8707966e-05
108	0x00000000	0.0
109	0x37f23cca	2.8876955e-05
110	0x37225d5d	9.67769e-06
111	0x35c76fdb	1.485921e-06
112	0x379cb161	1.8679248e-05
113	0x379382e8	1.7584724e-05
114	0x00000000	0.0
115	0x37ce2b9b	2.4577419e-05
116	0x00000000	0.0
117	0x38112c0a	3.461171e-05
118	0x37628ced	1.3503462e-05
119	0x33a38956	7.61526e-08
120	0x3799bd40	1.8327148e-05
121	0x37b3b829	2.1424219e-05
122	0x3785d7d5	1.595534e-05
123	0x37b68403	2.1757563e-05
124	0x377e1331	1.5144048e-05
125	0x00000000	0.0
126	0x37cedcdc	2.465996e-05
127	0x37bd8815	2.2593924e-05

exp_avg f4 [2]
0	0xb90c8b0e	-0.00013403242
1	0x390c8b08	0.00013403234

exp_avg_sq f4 [2]
0	0x39a79c94	0.00031969382
1	0x39a79c94	0.00031969382
